models/model_mlp.pt (torch_old, 662845 bytes, 8 tensors)

weight f4 [100, 1599]
0	0xbc5871c8	-0.013210721
1	0x38a2479e	7.738102e-05
2	0xbc980079	-0.018554913
3	0x3d868a5e	0.0656936
4	0xbcb549ae	-0.02212986
5	0xbcce1375	-0.025155762
6	0xbc1cf2b2	-0.009579347
7	0xbb8761f1	-0.0041315486
8	0xbc229fca	-0.009925792
9	0x3cf555c9	0.029948132
10	0xbba400fc	-0.005005
11	0xbc8d7f19	-0.017272519
12	0x3c82950d	0.015940214
13	0xbca82f6c	-0.020530425
14	0xbcabe9bd	-0.020985479
15	0x3d3bd1b6	0.045854293
16	0xbcec52f7	-0.028848154
17	0x3c8ac932	0.01694164
18	0xbbc3e220	-0.005977884
19	0x3da1dcd7	0.0790345
20	0x3b7e8a81	0.003883988
21	0x3d8b09b5	0.06788961
22	0x3cc465e6	0.02397437
23	0x3bc8a4b2	0.006123149
24	0xbc2a3ccf	-0.010390474
25	0xbc6d462b	-0.014482061
26	0xbcd657c2	-0.026164893
27	0xbcdf4462	-0.027254287
28	0x3cb97669	0.02263947
29	0x3baa84da	0.0052038254
30	0x3c5d86f5	0.013520946
31	0xbd01436c	-0.03155844
32	0xbc6be373	-0.01439749
33	0xbbe0f523	-0.00686516
34	0xbb4d60da	-0.0031338246
35	0xbcb3fd82	-0.021971468
36	0x3c0b3198	0.008495711
37	0x3c82373d	0.01589548
38	0xbc3dab7f	-0.011576532
39	0x3c03c9e9	0.008043745
40	0xbcf4b59c	-0.029871754
41	0xbc7b57bc	-0.015340742
42	0x3c7e392c	0.0155165605
43	0x3b970e3b	0.0046098507
44	0xbcf123e3	-0.029436057
45	0x3b0e85c2	0.0021747206
46	0x3cb4dca5	0.022077868
47	0xbd58d706	-0.052939437
48	0x3c08ba30	0.008345172
49	0x3c962550	0.018328339
50	0x3c4154bf	0.01179999
51	0xbc06f267	-0.008236504
52	0xbc6e03ed	-0.014527303
53	0xbc03a828	-0.008035697
54	0x3cf4efb8	0.029899463
55	0xbce4d163	-0.027931875
56	0xbd02f5db	-0.031972747
57	0xbd43d5b9	-0.047811244
58	0xbccc9fb5	-0.024978498
59	0x3c074864	0.008257005
60	0xbb33fe1b	-0.002746469
61	0xbca01473	-0.019541001
62	0xbc1e8b92	-0.009676831
63	0xbcedddb6	-0.029036384
64	0x3cb298a9	0.02180131
65	0x3b846c6d	0.0040412457
66	0xbcdc0e6e	-0.02686235
67	0x3c939471	0.018015118
68	0xbcc2f28f	-0.023797302
69	0x3cdcf446	0.026971947
70	0x3c4ee022	0.01262668
71	0xbc44eca5	-0.012019311
72	0xba13df1d	-0.00056408515
73	0xbd19b1da	-0.037523128
74	0xbba83650	-0.0051334277
75	0xbcfc908e	-0.030830648
76	0xbd368fcc	-0.04457073
77	0xba9ebbc2	-0.00121104
78	0x3b9ac09c	0.004722668
79	0x3b07d83a	0.0020728246
80	0x3c8024ca	0.015642542
81	0x3c881ef2	0.016616318
82	0xbcd294e8	-0.02570577
83	0xbcd89072	-0.026436064
84	0x3d30cebe	0.043165915
85	0xbace3093	-0.0015731029
86	0x3c644c7a	0.013934249
87	0x3c541f4d	0.012946916
88	0xbbb6dde6	-0.0055806516
89	0xbd14bdd3	-0.036313843
90	0xbc7488b3	-0.01492517
91	0xbb2bc442	-0.0026209508
92	0xbc804dbd	-0.015662069
93	0xbcaa48df	-0.0207867
94	0x3c6b4f42	0.014362158
95	0x3c60561c	0.013692405
96	0xbc317b26	-0.0108325835
97	0x3b2d70be	0.0026464905
98	0xbc329ecb	-0.010902117
99	0xbd20001c	-0.039062604
100	0x3c89568a	0.016764898
101	0x3ccd80be	0.025085803
102	0xbaf8469b	-0.001894194
103	0x38e4f21a	0.00010916982
104	0x3c830251	0.015992315
105	0xbcc01175	-0.023445824
106	0xbd181be0	-0.03713596
107	0xbbaaafff	-0.0052089687
108	0x3d011e50	0.03152305
109	0xbd2496b7	-0.040182795
110	0xbba1b229	-0.0049345684
111	0x3ca22d8a	0.019797105
112	0xbd702942	-0.058633097
113	0x3c4714c3	0.012150946
114	0x3bf0a6bf	0.0073440964
115	0xbc5f6264	-0.013634298
116	0xbd08e9d5	-0.033426125
117	0xbb8fedf5	-0.0043923804
118	0x3c02703f	0.007961332
119	0xbbf72967	-0.0075427773
120	0x3ba1cbde	0.004937633
121	0xbc143030	-0.009044692
122	0x3d56623b	0.052339774
123	0xbc23ade8	-0.009990193
124	0x3c7f369e	0.015576987
125	0xbc04e42f	-0.008111044
126	0xbcfb382c	-0.030666433
127	0xbc3d6874	-0.011560548
128	0x3c6ce8fa	0.014459843
129	0x3c1d2d6e	0.009593351
130	0xbd30821c	-0.043092832
131	0xbb3090a2	-0.0026941677
132	0x3d0eb517	0.03484067
133	0xbb6a4ed0	-0.0035752542
134	0xbca246f5	-0.019809226
135	0x3bc4118c	0.005983537
136	0x3a7cccfc	0.0009643582
137	0x3c4b340e	0.0124025475
138	0xbae70176	-0.0017624337
139	0x3c80308f	0.015648155
140	0x3b3706c1	0.002792761
141	0xbcce87a6	-0.025211167
142	0xbc70f884	-0.014707688
143	0x3c22e4b4	0.009942222
144	0xbcc7e9ea	-0.024403531
145	0x3c0ca566	0.008584356
146	0x3c8c1b4e	0.017102864
147	0x3d131dfd	0.03591727
148	0x3c52e331	0.012871549
149	0x3c952b4f	0.018209128
150	0xbc1819de	-0.009283511
151	0x3d2fac2d	0.04288881
152	0xbca8cbe1	-0.02060503
153	0x3d41772a	0.047232784
154	0xbca03d7e	-0.019560572
155	0xbd3dfc67	-0.046383288
156	0xbbfa4ae0	-0.0076383203
157	0x3c682566	0.014169073
158	0x3bffc7d7	0.007805805
159	0x3cfad492	0.03061894
160	0xbd4b4fa0	-0.049636483
161	0x3c59751e	0.013272552
162	0x3b0f3cc9	0.00218563
163	0x3cf14b54	0.029454865
164	0x3c809cd1	0.015699776
165	0xbc0c16e9	-0.008550384
166	0xbd1a7c49	-0.037716184
167	0x3c96d873	0.018413758
168	0x3d2ed3b3	0.04268236
169	0xbd3b095d	-0.045663226
170	0xbc19ab53	-0.009379226
171	0xbcd761fc	-0.02629184
172	0xbc2ad4ab	-0.010426681
173	0x3a2b5b0a	0.0006536698
174	0xbd234b0e	-0.0398665
175	0x3ce221a0	0.027603924
176	0x3c4d2c61	0.012522788
177	0xbd3e6506	-0.046483062
178	0xbcc4527b	-0.023965111
179	0xbbdaf0cb	-0.006681537
180	0x3b991735	0.004671956
181	0xbbdf6cfa	-0.006818411
182	0x3b6ce54e	0.0036147418
183	0xbbf8ff76	-0.0075988127
184	0x3cb57305	0.022149572
185	0xbb53560f	-0.003224734
186	0xbbcf4f7c	-0.006326614
187	0xbc2ecb09	-0.010668525
188	0xbba9fe8f	-0.0051878165
189	0x3d0ce1f6	0.03439518
190	0xbbd86611	-0.006603964
191	0xbb05c9d2	-0.0020414484
192	0xbcef1d8b	-0.029188892
193	0x3c8d79d8	0.017270014
194	0x3c3a032b	0.011353294
195	0xbd1713b8	-0.03688404
196	0x3c41ef8d	0.0118368985
197	0xbc87464d	-0.016513014
198	0x3c3ee54e	0.01165135
199	0xbb31061e	-0.0027011703
200	0xbafc9a4a	-0.0019272056
201	0x3b15892c	0.0022817357
202	0xbd2de9ac	-0.042459175
203	0xbd195c6d	-0.03744166
204	0x3ab8e6a6	0.0014106825
205	0xbd017d92	-0.031613894
206	0xbc8785aa	-0.016543228
207	0x3b488cb7	0.003060145
208	0xbc0780c8	-0.00827045
209	0xbd642134	-0.055695727
210	0xbce30a46	-0.02771486
211	0x3cb178e2	0.021664087
212	0x3cbccf1c	0.023047976
213	0x3be9e756	0.007138173
214	0xbdb724c6	-0.08942561
215	0xbc2f98bb	-0.010717566
216	0x3ca9be88	0.020720735
217	0xbc460c81	-0.012087942
218	0x3be8633e	0.0070919087
219	0x3b1388b9	0.0022511913
220	0xbc28f483	-0.010312202
221	0xbc9b22fd	-0.018937582
222	0x3c1bee56	0.009517273
223	0xbd5a9bb9	-0.053371165
224	0x3a883df2	0.0010394438
225	0x3ca063d0	0.019578844
226	0xbca2e308	-0.019883648
227	0x3cbb9c5e	0.02290171
228	0x3c240c5f	0.010012715
229	0x3d06d8d5	0.03292163
230	0xbcc07efd	-0.023498053
231	0x3c19d5f8	0.009389393
232	0xbc078023	-0.008270296
233	0xbacea6c1	-0.0015766249
234	0xbc762184	-0.015022639
235	0x3d12f508	0.03587821
236	0x3c7f3e9a	0.01557889
237	0xbc631be9	-0.013861635
238	0x3cce742f	0.025201885
239	0x3b4e35c9	0.0031465164
240	0x3cf65ca9	0.03007348
241	0xbb688c7a	-0.0035484121
242	0xbc1bc9bf	-0.009508549
243	0x3cc90a93	0.024541175
244	0xbd548fc9	-0.051894937
245	0x3c7316fa	0.014837021
246	0x3c3c4b6f	0.011492594
247	0xbd0f4db4	-0.034986213
248	0xbc88ec4e	-0.016714241
249	0xba822d47	-0.0009931707
250	0x3cea3782	0.028590921
251	0x3bbde253	0.005794802
252	0x3d2350de	0.039872043
253	0xbc3603e0	-0.011109322
254	0x3c2e9bb1	0.010657237
255	0x3afad902	0.001913816

bias f4 [100]
0	0xbb8ac1a6	-0.0042345105
1	0x3c2ecf1f	0.010669499
2	0x3bc573a4	0.0060257483
3	0xbc5f81c6	-0.01364178
4	0x3a85217a	0.0010157072
5	0xbcac85d6	-0.021059912
6	0xbcab656e	-0.020922389
7	0x3c54a9d7	0.012979946
8	0x3c4133d7	0.011792145
9	0x3ba11bdc	0.004916651
10	0xbc32aac4	-0.0109049715
11	0x3cc8237b	0.02443098
12	0x3c5959fd	0.013266084
13	0xbb7221db	-0.003694645
14	0xba1741d7	-0.0005770004
15	0xbc9077b7	-0.01763521
16	0xbb9d4efa	-0.0048006745
17	0x3bd09056	0.0063648624
18	0xbccb4fc2	-0.024818305
19	0x3c7f6b7d	0.015589592
20	0x3c82208a	0.015884656
21	0xbc9a9537	-0.01886998
22	0xbc13f397	-0.009030244
23	0xbc82960f	-0.015940694
24	0x3b8eff85	0.0043639564
25	0x3ca552ca	0.020181078
26	0x3ca1ea16	0.019764941
27	0xbc166174	-0.009178508
28	0xbc672641	-0.014108242
29	0xbb0300a8	-0.0019989405
30	0xbad3b8b8	-0.0016153073
31	0x3cb8c742	0.022555951
32	0x3b6eae10	0.0036419667
33	0x3c32d3c3	0.010914746
34	0xbc41f68e	-0.011838568
35	0x3cb189c5	0.021672139
36	0x3c9a6041	0.018844726
37	0xbc663750	-0.014051273
38	0x3cbf1caa	0.023329098
39	0xbc1b292c	-0.009470265
40	0x3caaae54	0.02083508
41	0x3c4540b1	0.012039349
42	0x3c4cc44d	0.012497974
43	0x3bc54480	0.0060201287
44	0x3c513570	0.012769088
45	0x3c6d4ae4	0.014483187
46	0xb97931c3	-0.00023765028
47	0xbcb0019d	-0.021485144
48	0xbb982e02	-0.0046441564
49	0xbbd21b88	-0.0064119734
50	0x3c3972b7	0.011318854
51	0xbb351221	-0.0027629214
52	0x3a292a54	0.0006453146
53	0xbc2327b7	-0.009958199
54	0x3cbf1fde	0.023330625
55	0xbbaab2e5	-0.005209314
56	0x3b5bdefa	0.0033549652
57	0xbc8ed944	-0.017437585
58	0x3b7ed99b	0.0038887027
59	0x3bc8d879	0.006129321
60	0xbc9f5871	-0.019451352
61	0xbb45f9a2	-0.0030208607
62	0xbc2456e7	-0.010030485
63	0x3cc992f5	0.024606207
64	0xbc0d73e3	-0.008633587
65	0xbcc6acd5	-0.024252335
66	0x3b80d569	0.0039316905
67	0xbc1425fb	-0.009042258
68	0xbbb2a684	-0.005451979
69	0xbc8f0bba	-0.017461646
70	0x3c85989d	0.016308123
71	0xbbdb3409	-0.0066895527
72	0x3c6c7e26	0.014434373
73	0xbc456d79	-0.012050026
74	0x3b6d6526	0.003622362
75	0xbb382d92	-0.0028103334
76	0x3ca086d8	0.019595549
77	0x3be784f5	0.0070654103
78	0x3c1ae5e5	0.009454225
79	0x3b209ba1	0.0024506825
80	0xbcc5c7af	-0.024143068
81	0xbc4d68d9	-0.012537205
82	0xb8bbe22d	-8.9589834e-05
83	0xbc119e07	-0.008887774
84	0x3b869cb8	0.004108038
85	0x3ca9da40	0.020733953
86	0x3ccc0d58	0.024908707
87	0x3c3ef787	0.011655695
88	0x3c253fb3	0.010085988
89	0x3bf31c33	0.007419133
90	0xbc693afb	-0.014235253
91	0x3c470bec	0.0121488385
92	0x3c90d07f	0.017677544
93	0xbcad83d2	-0.02118102
94	0xbc04db59	-0.008108937
95	0x3c3b63d8	0.011437379
96	0x3c373adc	0.011183467
97	0xbc0f56ab	-0.008748691
98	0x3bbff453	0.005857983
99	0x3c0303d1	0.007996515

weight f4 [31, 100]
0	0xbdb872c0	-0.09006262
1	0xbd891691	-0.06693757
2	0x3e2cf55f	0.16890477
3	0xbe062dbc	-0.13103384
4	0x3dc76c07	0.097374015
5	0xbdfa2a66	-0.12215118
6	0x3d65ea5b	0.056131702
7	0xbe2b1573	-0.16707401
8	0xbe68239c	-0.22669834
9	0xba9db47e	-0.001203194
10	0x3e1a4558	0.15065515
11	0xbda781c4	-0.08179048
12	0xbe1de078	-0.1541766
13	0xbeb964e6	-0.36209792
14	0x3d8807dc	0.06642124
15	0xbe20b871	-0.15695359
16	0xbea9ed1a	-0.33188707
17	0xbe600d52	-0.21880081
18	0xbe2c1b92	-0.16807392
19	0xbcc2f829	-0.023799973
20	0xbd7e19d6	-0.062036358
21	0x3df47851	0.11937011
22	0xbddf396d	-0.10899625
23	0x3d2e1874	0.04250379
24	0xbf3727a6	-0.71544874
25	0xbe88b7a4	-0.26702607
26	0xbe1ccbda	-0.15312138
27	0x3df2efae	0.118621215
28	0x3db62548	0.088938296
29	0xbeb52463	-0.35379323
30	0x3df91e6b	0.12164005
31	0xbdd8ecfc	-0.10592076
32	0xbb04f4ef	-0.0020287593
33	0xbe178cf9	-0.1479987
34	0xbe9d2ecb	-0.30699763
35	0x3c681104	0.014164213
36	0xbde541ff	-0.111942284
37	0x3e038334	0.12843019
38	0x3cf3f5a1	0.02978021
39	0xbe2bee97	-0.16790234
40	0xbcb21e3f	-0.021742938
41	0xbe45841f	-0.19288681
42	0x3e11fae3	0.14255862
43	0xbea7fa65	-0.32808223
44	0xbca5e8ab	-0.020252546
45	0x3c0ddf4b	0.008659194
46	0xbf1c7381	-0.61113745
47	0x3e4acaf6	0.19803986
48	0x3e5d2bcd	0.2159874
49	0x3d5a6e57	0.053327885
50	0xbe8df647	-0.27726957
51	0x3e314850	0.17312741
52	0xbd895e9f	-0.06707501
53	0x3e2f699b	0.17130129
54	0x3d85d0f5	0.06533996
55	0x3e019ad0	0.12656713
56	0xbdf521de	-0.1196935
57	0x3d03aa96	0.032145105
58	0xbe17e80f	-0.14834617
59	0x3d0ff4a7	0.035145428
60	0x3e10f178	0.14154613
61	0x3d210b15	0.03931721
62	0xbcbb4fee	-0.022865262
63	0xbeda9f2b	-0.4269956
64	0xbdd6402d	-0.10461459
65	0xbd505e3f	-0.05087113
66	0x3e4b8016	0.1987308
67	0xbd9996b1	-0.07499445
68	0xbde16e7f	-0.110074036
69	0x3dfefb94	0.124503285
70	0xbedb69c3	-0.42854127
71	0xbe02ac92	-0.12761143
72	0xbdbe57eb	-0.09294113
73	0xbda08967	-0.078387074
74	0xbd4c4f65	-0.049880404
75	0xbdb3f912	-0.08787741
76	0x3e2d8422	0.16944936
77	0x3e289ca4	0.16466004
78	0xbe51a199	-0.20471801
79	0xbc59c980	-0.01329267
80	0x3e261911	0.162205
81	0xbe5e978c	-0.21737498
82	0xbe6eb71f	-0.23312043
83	0xbd9bb15b	-0.07602187
84	0xbda2585d	-0.0792701
85	0x3e32f545	0.17476375
86	0x3ddbcf87	0.10732942
87	0xbbb08266	-0.0053866385
88	0xbe707b55	-0.23484547
89	0x3de46a19	0.11153049
90	0xbe7465df	-0.23866986
91	0xbd4c889f	-0.04993498
92	0xbe02da54	-0.12778598
93	0xbb6190b9	-0.0034418537
94	0xbe1c2b4a	-0.15250888
95	0xbbd5c3c7	-0.0065235826
96	0xbe17b98f	-0.14816879
97	0xbdc69647	-0.09696632
98	0xbe5b31c3	-0.21405701
99	0xbde62795	-0.112380184
100	0xbdaca1f5	-0.08429328
101	0xbe5fa6d1	-0.21840979
102	0xbdde9550	-0.10868323
103	0xbcc63fbe	-0.024200317
104	0x3ce73367	0.028222753
105	0x3ddbc1ec	0.10730347
106	0x3e10e28f	0.14148925
107	0xbd81bd0e	-0.063348874
108	0xbd9c4163	-0.07629659
109	0xbdd2f769	-0.10301096
110	0xbc29ad03	-0.010356191
111	0xbd618af6	-0.055064164
112	0xbe6323cd	-0.22181626
113	0xbe0c7790	-0.13717484
114	0xbe2743d7	-0.16334473
115	0x3e1f9598	0.15584409
116	0xbde04bd8	-0.10951966
117	0xbe14ec33	-0.14543228
118	0xbd968b35	-0.073507704
119	0xbdb96f3b	-0.09054419
120	0xbde8f077	-0.1137399
121	0x3e1b24d5	0.15150769
122	0xbe043e45	-0.12914379
123	0x3c900800	0.01758194
124	0xbe1bbcf1	-0.15208794
125	0xbda108d7	-0.07863014
126	0xbe1221d0	-0.14270711
127	0xbdd66fd1	-0.10470546
128	0xbe420211	-0.18946101
129	0xbe203438	-0.1564492
130	0xbdba3881	-0.090928085
131	0xbde55932	-0.11198653
132	0x3ccf537b	0.025308361
133	0xbd42d571	-0.047566835
134	0xbd8cb58d	-0.068705656
135	0xbc0f6896	-0.008752963
136	0xbe19d8a6	-0.15024051
137	0xbdb39820	-0.0876925
138	0xbd8ed6ae	-0.06974541
139	0xbe278eed	-0.16363116
140	0x3de1a53e	0.110178456
141	0x3e3afb49	0.1825992
142	0xbd903763	-0.07041814
143	0x3e2bb6d9	0.1676897
144	0xbe3c3c4f	-0.18382381
145	0x3dcd48e2	0.10023667
146	0xbc98355a	-0.018580128
147	0xbe2694a5	-0.16267641
148	0x3e131230	0.14362407
149	0xbddddacd	-0.108327486
150	0xbded5efd	-0.11590383
151	0xbe3976da	-0.18111745
152	0xbe907562	-0.28214556
153	0xbdeaa098	-0.11456412
154	0xbd9c7ad1	-0.07640613
155	0xbe25a2fe	-0.16175458
156	0x3dddc88b	0.10829266
157	0xbd85026a	-0.06494601
158	0xbe2d6755	-0.1693395
159	0x3c779e4f	0.015113427
160	0xbd5c0223	-0.053712975
161	0xbdf11338	-0.11771244
162	0xbd4d635d	-0.05014359
163	0xbe21460b	-0.15749376
164	0xbe6bd1a8	-0.23029196
165	0xbdcb4817	-0.099258594
166	0xbe617f37	-0.22021185
167	0xbe8c9773	-0.27459297
168	0xbe10eae1	-0.14152099
169	0x3e42670c	0.18984622
170	0xbd742346	-0.059603952
171	0xbd0b8acb	-0.03406791
172	0x3dfbb0e0	0.122895956
173	0xbe4e282b	-0.2013251
174	0x3e0b41af	0.13599275
175	0x3d122348	0.035678178
176	0xbddf8265	-0.10913543
177	0xbe2a5887	-0.16635333
178	0xbe232b3f	-0.15934466
179	0xbd858cc7	-0.06520992
180	0x3d5f44bb	0.054508906
181	0x3b5e9d80	0.003396839
182	0xbe162a1f	-0.14664505
183	0xbcf862a7	-0.030320479
184	0xbe29c3d0	-0.16578603
185	0xbb8d73d4	-0.0043167863
186	0xbe6c151a	-0.23054925
187	0x3db26808	0.08711249
188	0x3cf3cc90	0.029760629
189	0xbe225882	-0.15854076
190	0x3e1368aa	0.14395395
191	0xbe0b5542	-0.13606742
192	0x3dfae574	0.12250796
193	0x3e319a01	0.17343904
194	0xbd40b385	-0.047046203
195	0xbd115300	-0.035479546
196	0xbd8e0e48	-0.06936318
197	0x3e0c2358	0.13685358
198	0xbd17be4a	-0.03704671
199	0x3e239e80	0.15978432
200	0x3e157557	0.14595543
201	0xbeb2a398	-0.34890437
202	0xbdb1864f	-0.086681955
203	0xbe477013	-0.19476347
204	0x3d209c63	0.039211642
205	0x3deddf12	0.11614813
206	0x3e35c65f	0.17751454
207	0xbe37eaf2	-0.17960718
208	0xbe3e10f0	-0.18561149
209	0xbe0268a5	-0.12735231
210	0x3df92c78	0.12166685
211	0xbe48ab4e	-0.19596598
212	0x3e26426c	0.16236275
213	0xbe49cf46	-0.19707975
214	0xbdd9c719	-0.10633678
215	0x3d947cef	0.07250392
216	0xbe71b8d5	-0.23605664
217	0xbe005fda	-0.12536564
218	0xbcd8ce55	-0.026465574
219	0xbe47a6f9	-0.19497289
220	0xbe05d87d	-0.13070865
221	0x3dca1d4a	0.09868868
222	0xbe55ca2d	-0.20877905
223	0xbb85af9b	-0.0040797717
224	0xbcc487e7	-0.023990585
225	0x3e33ca63	0.17557673
226	0xbe9c0cc4	-0.3047849
227	0xbea67f3d	-0.3251895
228	0xbea2851c	-0.3174218
229	0x3ccc7099	0.024956034
230	0xbe839500	-0.25699615
231	0xbd09f7b7	-0.033683505
232	0xbd86ab77	-0.06575673
233	0x3e44dec5	0.19225605
234	0xbe8d97a2	-0.2765475
235	0x3e681fa8	0.22668326
236	0xbcfcbb05	-0.030850897
237	0xbef2810f	-0.4736409
238	0x3e5c9453	0.21540956
239	0x3e959afa	0.292198
240	0x3d8caf23	0.06869342
241	0xbee5101c	-0.44738853
242	0xbe431c09	-0.19053663
243	0x3e5dd9b6	0.21665081
244	0xbe45216d	-0.19251032
245	0x3cd76987	0.026295437
246	0x3e473640	0.19454288
247	0xbe9bf46d	-0.3045992
248	0x3d392338	0.045199603
249	0x3e3aef46	0.18255338
250	0xbe78ad14	-0.24284774
251	0xbe0520ea	-0.13000837
252	0x3d5dd6e7	0.054160025
253	0xbde8e472	-0.113716975
254	0xbcafe288	-0.021470323
255	0x3e7d4cba	0.247363

bias f4 [31]
0	0xbd5b0261	-0.053469066
1	0xbd64ee3e	-0.055891268
2	0xbe2e0148	-0.16992676
3	0x3d82cb42	0.063864246
4	0x3d4c2b26	0.049845837
5	0x3c8c58b4	0.01713214
6	0xbc68567f	-0.0141807785
7	0xbc41853a	-0.011811549
8	0xbe00af14	-0.12566787
9	0xbe00ef8f	-0.12591384
10	0xbcb334e0	-0.021875799
11	0xbdf25f51	-0.118345864
12	0x3d7ae7aa	0.06125609
13	0x3d50c3b2	0.05096788
14	0xbdf21913	-0.11821189
15	0x3cebbcd5	0.028776566
16	0x3de64011	0.112426884
17	0x3cbf3559	0.023340868
18	0x3db4cb5a	0.08827849
19	0x3d931c61	0.07183147
20	0x3e07d5a7	0.13265096
21	0x3d62c3e4	0.055362597
22	0x3d93e189	0.07220752
23	0xbd98806d	-0.0744637
24	0xbd153586	-0.036427997
25	0x3d43dc15	0.04781731
26	0xbcc231b7	-0.023705347
27	0x3da60f12	0.08108343
28	0x3dd162f2	0.102239504
29	0xbe1a7ddb	-0.15087073
30	0xbc402faa	-0.011730114

weight f4 [100]
0	0x3fb6cdbd	1.4281536
1	0x3fbcc14f	1.4746493
2	0x3fc4fc54	1.5389504
3	0x3fd93c5f	1.6971549
4	0x3fc31193	1.5239738
5	0x3fbe0bec	1.4847388
6	0x3fd0cc19	1.6312286
7	0x3fbd77a1	1.4802133
8	0x3fbb0739	1.4611579
9	0x3fc418e8	1.5320101
10	0x3fcb6bf5	1.5892321
11	0x3fbec203	1.4902958
12	0x3fb6e159	1.4287521
13	0x3fc9b531	1.575842
14	0x3fbf6549	1.4952785
15	0x3fb62a94	1.4231744
16	0x3fcef85e	1.6169546
17	0x3fb2f5c0	1.3981247
18	0x3fd25f95	1.6435419
19	0x3fc8892a	1.5666859
20	0x3fc54050	1.5410252
21	0x3fd2e051	1.6474706
22	0x3fd6ed61	1.6791192
23	0x3fc17849	1.5114833
24	0x3fb3a350	1.4034214
25	0x3fc9b048	1.5756922
26	0x3fca8e09	1.5824596
27	0x3fcfc3ef	1.6231669
28	0x3fbbba8b	1.4666303
29	0x3fc15cec	1.5106483
30	0x3fca143e	1.5787427
31	0x3fb5ea57	1.421214
32	0x3fc2a794	1.5207391
33	0x3fccce35	1.6000429
34	0x3fbaf23f	1.4605178
35	0x3fcb1ee8	1.5868807
36	0x3fccb9ee	1.5994241
37	0x3fc11c93	1.5086845
38	0x3fc4295d	1.5325123
39	0x3fbfc641	1.4982377
40	0x3fd94423	1.6973919
41	0x3fb99f44	1.4501729
42	0x3fdf8edc	1.7465472
43	0x3fc1cf9b	1.5141481
44	0x3fb9e87c	1.4524074
45	0x3fc09083	1.5044101
46	0x3fbe7f87	1.4882668
47	0x3fbcf96c	1.4763618
48	0x3fc30a79	1.5237571
49	0x3fc4a84c	1.536386
50	0x3fc5e1ac	1.5459495
51	0x3fb89327	1.4419907
52	0x3fbeea52	1.4915259
53	0x3fbcd374	1.475203
54	0x3fd1f3d4	1.6402535
55	0x3fd21f38	1.6415777
56	0x3fbdfb8e	1.4842393
57	0x3fce5a44	1.6121297
58	0x3fb4c741	1.4123307
59	0x3fc9984f	1.5749606
60	0x3fbfac57	1.4974469
61	0x3fcfd29d	1.6236149
62	0x3fb68478	1.4259176
63	0x3fbf1f75	1.4931475
64	0x3fcce061	1.6005975
65	0x3fbb7811	1.4646016
66	0x3fbc0b5f	1.469097
67	0x3fc0f364	1.5074277
68	0x3fc2836f	1.519636
69	0x3fd1959b	1.6373781
70	0x3fc2e8a0	1.5227242
71	0x3fd82095	1.6884943
72	0x3fb94651	1.4474584
73	0x3fc55cd2	1.5418952
74	0x3fcff5d1	1.6246892
75	0x3fc35ac4	1.5262074
76	0x3fc35406	1.5260017
77	0x3fc81382	1.5630953
78	0x3fdc5c13	1.7215599
79	0x3fbe2014	1.485354
80	0x3fe0f771	1.7575513
81	0x3fc5226c	1.540113
82	0x3fc817ad	1.5632225
83	0x3fbdc19f	1.4824713
84	0x3fc3c710	1.5295124
85	0x3fb52929	1.4153186
86	0x3fb9bec4	1.4511342
87	0x3fc488ff	1.5354308
88	0x3fd8295b	1.6887621
89	0x3fb8c946	1.4436424
90	0x3fcce19b	1.6006349
91	0x3fb928af	1.4465541
92	0x3fbdda58	1.4832258
93	0x3fd420dc	1.6572528
94	0x3fcf050f	1.6173419
95	0x3fbe739e	1.4879034
96	0x3fd0e32f	1.6319331
97	0x3fbcb901	1.4743959
98	0x3fc66a00	1.5501099
99	0x3fceb423	1.6148723

bias f4 [100]
0	0x3e7a3459	0.24434032
1	0x3e74bda6	0.2390047
2	0x3eb5a2a3	0.35475644
3	0x3e665790	0.2249434
4	0x3e84c8aa	0.25934345
5	0x3e8a8950	0.27057886
6	0x3e2e6adb	0.1703295
7	0x3e9b3aad	0.30318204
8	0x3e9a9fb8	0.3019998
9	0x3e95f74b	0.29290232
10	0x3e5915b2	0.21199682
11	0x3e5068f0	0.2035253
12	0x3e97259f	0.2952089
13	0x3e749a61	0.23887016
14	0x3e486d85	0.19573028
15	0x3e5cc95c	0.21561188
16	0x3e913526	0.28360862
17	0x3e81459a	0.25248414
18	0x3ecc90be	0.3995418
19	0x3e6740ad	0.22583266
20	0x3e40181a	0.18759194
21	0x3e7b12bc	0.24518865
22	0x3e610b77	0.2197703
23	0x3e56772e	0.20943901
24	0x3e6cec78	0.2313708
25	0x3e90b1a7	0.28260538
26	0x3eaa124c	0.33217084
27	0x3e84f6f7	0.2596967
28	0x3ea7d502	0.327797
29	0x3e374022	0.17895558
30	0x3e8f0e6e	0.27940696
31	0x3e869e9d	0.26292887
32	0x3e9a109e	0.30090803
33	0x3e9047b4	0.28179705
34	0x3e559330	0.20856929
35	0x3e600343	0.21876244
36	0x3e83a73e	0.25713533
37	0x3e8376e4	0.25676644
38	0x3e1e4830	0.15457225
39	0x3e1dcb63	0.15409617
40	0x3e6150d9	0.22003497
41	0x3e98b96a	0.2982896
42	0x3e026117	0.1273235
43	0x3eae86cd	0.3408722
44	0x3e9bcb46	0.30428523
45	0x3ea3c399	0.31985167
46	0x3e9d767b	0.30754456
47	0x3e9021cf	0.28150794
48	0x3e8b0c7c	0.27157962
49	0x3e309820	0.17245531
50	0x3ea40841	0.32037547
51	0x3e61c0a9	0.2204615
52	0x3e8b858c	0.27250326
53	0x3e79d57b	0.24397843
54	0x3e489c4c	0.19590873
55	0x3e8cc742	0.27495772
56	0x3e55e4f9	0.20888127
57	0x3e08bfb4	0.13354379
58	0x3e858e4a	0.2608512
59	0x3e376d23	0.17912726
60	0x3e4a1c8b	0.19737451
61	0x3e1a74fc	0.15083688
62	0x3e82d656	0.2555415
63	0x3e84343d	0.25821105
64	0x3e8b406b	0.27197585
65	0x3e32f02f	0.17474435
66	0x3e817621	0.25285438
67	0x3e89f813	0.26947078
68	0x3e92e318	0.28688884
69	0x3e92d97a	0.28681546
70	0x3eae70de	0.34070486
71	0x3e202fec	0.1564328
72	0x3e356513	0.17714338
73	0x3e0ab006	0.1354371
74	0x3e2648ac	0.1623866
75	0x3e330f91	0.17486407
76	0x3e607951	0.21921279
77	0x3eaac82d	0.33355847
78	0x3e37886c	0.17923135
79	0x3e81d0ba	0.25354558
80	0x3e5f9a42	0.21836188
81	0x3e832ebd	0.25621596
82	0x3e70f431	0.23530652
83	0x3e71e956	0.23624167
84	0x3e4e7797	0.20162807
85	0x3e542088	0.20715535
86	0x3e4847fe	0.19558713
87	0x3e9bc84a	0.30426246
88	0x3e92737a	0.28603727
89	0x3e868601	0.26274112
90	0x3e6bbe0c	0.23021716
91	0x3e43d709	0.19124998
92	0x3e8a6ad6	0.27034634
93	0x3e1cfd01	0.15330888
94	0x3e4abd54	0.19798785
95	0x3ddb3ce3	0.107049726
96	0x3e68ccca	0.22734371
97	0x3e7f824d	0.2495205
98	0x3e419dc3	0.18907838
99	0x3e68a015	0.22717316

running_mean f4 [100]
0	0xbca43a14	-0.020047225
1	0x3c24d333	0.010060119
2	0x3d00e6db	0.03147016
3	0xbc52ae38	-0.01285892
4	0x3c0d1419	0.008610749
5	0xbd0a748e	-0.03380256
6	0xbbd0f4be	-0.006376832
7	0x3bc5fe91	0.0060423096
8	0xbc29126f	-0.010319336
9	0xbc1300c8	-0.008972354
10	0x3c21c3b5	0.00987332
11	0x3d48ad0c	0.048993155
12	0x3be09da8	0.0068547316
13	0x3ca6f75d	0.020381624
14	0xbbaf0dd1	-0.005342223
15	0x3b300d49	0.0026863387
16	0x3bdb534e	0.0066932803
17	0xbd344063	-0.044006716
18	0xbd5ef4d6	-0.054432712
19	0x3cd6be26	0.026213717
20	0x3d1c1bf4	0.038112596
21	0x3c5b3c71	0.01338111
22	0x3b1b214b	0.0023670967
23	0xbc5d865d	-0.013520804
24	0xbc6208c3	-0.013796034
25	0x3c6469fd	0.013941285
26	0xbb9b8d68	-0.0047470815
27	0xbd33988a	-0.043846644
28	0xbd28a1d0	-0.04116994
29	0xbc8becb9	-0.017080652
30	0xbbb05ca7	-0.005382139
31	0x3c5ece35	0.013598968
32	0xb88e027f	-6.7715526e-05
33	0x3c8f55da	0.017496992
34	0x3d51cc6e	0.05122035
35	0x3c8ebfb1	0.01742539
36	0x3c3a496a	0.011370042
37	0xbb683afc	-0.0035435548
38	0x3ceea15f	0.029129682
39	0xbbd1acde	-0.006398781
40	0x3ccc0861	0.02490634
41	0x3c09a32c	0.00840072
42	0x3cda43a7	0.026643587
43	0x3d124cdb	0.035717826
44	0xb9efb57f	-0.00045720857
45	0x3c8ec448	0.017427579
46	0xbc558119	-0.013031268
47	0x3bed4122	0.0072404305
48	0x3c3c30c8	0.01148624
49	0x3ca3aa6d	0.019978726
50	0x3b8433f1	0.004034512
51	0x3d75abb2	0.059978195
52	0xbc179062	-0.009250732
53	0xbd2b60c7	-0.04184034
54	0xbc230c08	-0.009951599
55	0xbcee21c0	-0.029068828
56	0x3aeec953	0.0018217958
57	0xbc9425f1	-0.018084498
58	0xbd1fccc1	-0.039013628
59	0x3cd57d1e	0.026060637
60	0xbd02501c	-0.03181468
61	0x3c88be6b	0.01669236
62	0x3a9ed8a0	0.0012119003
63	0x3c5cbb09	0.013472327
64	0xbc62412d	-0.013809484
65	0xbcd934cb	-0.026514431
66	0x3c439ca1	0.011939199
67	0x3bf1bfba	0.007377592
68	0xbcb8f725	-0.022578785
69	0xbd16dca6	-0.03683152
70	0x3d6904f9	0.056889508
71	0x3c02be5e	0.007979957
72	0x3d1f395f	0.038873073
73	0xbc136c3d	-0.008997974
74	0x3d1d65a4	0.03842701
75	0xbca9f747	-0.020747794
76	0x3cf5a0a0	0.029983819
77	0x3cab6125	0.020920346
78	0xbc16beb6	-0.0092007425
79	0xbadae9b2	-0.0016701727
80	0xbc927569	-0.017878251
81	0xbc1b38a7	-0.009473956
82	0x3c9d5905	0.019207487
83	0xbc15b3fc	-0.00913715
84	0x3c0839fc	0.008314606
85	0x3b72923c	0.0037013432
86	0x3c0295a2	0.007970246
87	0x3d493e72	0.049131818
88	0xbb4415b1	-0.0029920156
89	0x3cb91489	0.0225928
90	0xbb8af0ba	-0.0042401226
91	0xbc19e2ae	-0.009392424
92	0x3be860f4	0.007091636
93	0xbc1bddb7	-0.00951331
94	0xb8e0659c	-0.000107000786
95	0x3d6e19a7	0.058129933
96	0x3bf73653	0.0075443177
97	0x3bbed0d6	0.005823235
98	0x3c8b3bac	0.016996227
99	0x3c7d3652	0.0154548455

running_var f4 [100]
0	0x3f2da377	0.6782755
1	0x3f33cdd6	0.70235956
2	0x3f1efdaf	0.6210584
3	0x3e7100cb	0.23535459
4	0x3eaa9a20	0.33320713
5	0x3ef7128c	0.48256338
6	0x3f7ef8d1	0.99598414
7	0x3edfecfd	0.43735495
8	0x3fa1dd80	1.2645721
9	0x3ec4ea79	0.38460138
10	0x3e70e783	0.23525815
11	0x3ea96ab2	0.33089215
12	0x3f398c08	0.72479296
13	0x3fa99e97	1.3251523
14	0x3f1e5fd3	0.61864966
15	0x3f252687	0.64511913
16	0x3f3e0874	0.7423165
17	0x3fd13577	1.6344441
18	0x3f5c0145	0.8593944
19	0x3de1f1e4	0.11032465
20	0x3ec71398	0.38882136
21	0x3f6168c1	0.88050467
22	0x3f5b7faa	0.85741675
23	0x3ea49c72	0.32150608
24	0x3f76a237	0.9634127
25	0x3f1b0524	0.6055472
26	0x3e9c61e7	0.30543444
27	0x3f9538e1	1.1657983
28	0x3fa1c949	1.2639552
29	0x3f22d72c	0.63609576
30	0x3e27130c	0.1631586
31	0x3ef068e2	0.4695502
32	0x3f17c3d7	0.592832
33	0x3e18de5e	0.14928576
34	0x3f99dddd	1.2020832
35	0x3ec00f4e	0.37511677
36	0x3ef12b55	0.47103372
37	0x3fb72105	1.4306952
38	0x3ee51d46	0.44748896
39	0x3e8b6e39	0.2723253
40	0x3e039ad2	0.12852028
41	0x3ee00bca	0.43758994
42	0x3f50430d	0.8135231
43	0x4014ebb1	2.3268855
44	0x3f717c6c	0.9433048
45	0x3f961f1d	1.1728245
46	0x402c40db	2.6914585
47	0x3fc894cd	1.567041
48	0x3f8fc5b7	1.1232213
49	0x3ed22198	0.41041255
50	0x3f3e8728	0.7442498
51	0x3f388d78	0.72090864
52	0x3f5a6ebf	0.85325235
53	0x3f24163a	0.64096415
54	0x3f382d07	0.71943706
55	0x3e4e1779	0.20126142
56	0x3e9553b5	0.29165426
57	0x3e945491	0.2897077
58	0x3f656cb7	0.8961901
59	0x3fa0c753	1.2560829
60	0x3e8b3b3a	0.27193624
61	0x3e922a81	0.28548053
62	0x3f00ef9a	0.503656
63	0x3f1f509a	0.62232363
64	0x3eb18ae1	0.3467627
65	0x3f6b59cb	0.9193389
66	0x3f89c2ab	1.0762533
67	0x3f3030fe	0.68824756
68	0x3f19d07b	0.6008374
69	0x3e9d21cb	0.30689844
70	0x3fbb7ba7	1.4647111
71	0x3ef8cd1b	0.48593983
72	0x3f4a14d4	0.7893803
73	0x3f63e6c4	0.89023995
74	0x3eb489aa	0.3526128
75	0x3f692f14	0.9108746
76	0x3fa5072b	1.2892812
77	0x3fd54de0	1.666439
78	0x3f149d39	0.580524
79	0x3e9f849c	0.3115586
80	0x3e18f489	0.14937033
81	0x3e291b71	0.16514374
82	0x3f894ed7	1.0727185
83	0x3ea0f80e	0.3143925
84	0x3f07ce93	0.5304958
85	0x3f3938c3	0.72352237
86	0x3edc64d1	0.43045667
87	0x3f007c66	0.50189817
88	0x3faa70aa	1.3315632
89	0x3f1fec68	0.624701
90	0x3dfab00d	0.1224061
91	0x3f2c217d	0.672386
92	0x3f304418	0.688539
93	0x3f425494	0.75910306
94	0x3e1348ac	0.14383191
95	0x3f844864	1.0334592
96	0x3f096398	0.53667593
97	0x3f47c446	0.78033864
98	0x3ee0a21d	0.43873683
99	0x3e2644bd	0.16237159
